models/policy.pt (torch_old, 66915 bytes, 9 tensors)

log_std f4 [5]
00000000: 0be1 fbbe dd17 01bf 9d97 01bf 10ef 00bf
00000010: 260b 00bf
-0.49195132 -0.5042704 -0.5062197 -0.5036478 -0.5001701

perceptron.0.weight f4 [64, 119]
00000000: 2282 32bd 5096 1fbc 3824 dabc 9c0b a6bd
00000010: c9b3 16bd f8f7 75bd be10 513d de00 423d
00000020: 804d 34bc 7da0 24bd 7355 c23d b43c f4bc
00000030: 29c3 8a3d adc3 95bd 3571 183c a9cc a43c
00000040: a88f b93c 326c 9d3c c034 383b 3fb0 82bd
00000050: df17 8abd 68ad b7bd 0616 23bd 9f48 933d
00000060: 98db 4a3d c949 4ebc 0c2d 84bd c965 803d
00000070: 6e81 3e3d 2e18 af3c 8901 57bd 42da 2b3d
00000080: d814 6bbc 8899 0fbc 3450 8abd b8a4 9d3d
00000090: 2643 303d c179 ac3d 81d3 a13d 918d e23c
000000a0: 3a18 04bd 6428 cabc 6426 bcbc be86 87bd
000000b0: 2771 b63d 72e7 62bd 7276 203d ab98 803d
000000c0: 2f22 cdbd eff8 573d c3b9 adba c053 c23b
000000d0: 61f5 ab3d f8b4 b93c c4e2 2c3d 3619 8e3d
000000e0: 3b08 9c3d 81a3 b53d ac58 c83b 8b5c c0bb
000000f0: 4abc f4bc 10a1 60bd bae3 6c3d 8338 573d
00000100: d4e1 3f3d 80c4 75bd c7ed 9dbd 07d6 75bc
00000110: a201 35bc 7546 2fbd 6e0c adbd 621f 11bb
00000120: 2a16 253d 05af 8f3d 864d 99bd cd7c 5dbd
00000130: db0d bebd 8be4 25bd 474c c1bc aecd cabc
00000140: 3d2c f73c 7841 19bd bad5 4fbd 958f ad3d
00000150: ea0e 683d cb8c fe3c 30d3 d53c 146e 123d
00000160: 0447 2e3d 731e 03bd 1d31 abbd 0a04 583d
00000170: ca7b a73d 514f 96bc 7121 6abc 5ac4 19bd
00000180: 6fe9 6c3d 085d c03d 2a71 58bd bed9 9c3d
00000190: 4c95 9bba caaa 4fbd efe3 56bd 2bc0 a33d
000001a0: 68ff 2c3a 9ea3 d73b 3ddd e9bc c99b 7d3d
000001b0: 7dfc 4e3c e61f 943d 3909 6fbd 09df 59bd
000001c0: 50d5 94bb 4aa4 acbd b502 6fbc 723c 12bd
000001d0: b8be 12bc 1455 6dbc afa1 b13d cba9 b1bc
000001e0: 5850 bebc 8cfd ef3c 3474 f33c 94a5 373c
000001f0: 2441 e03c 2675 5c3d c0da 77bb e25f 5f3d
00000200: c9a8 26bd ad04 ad3b 64f4 9bbc 5f9a 90bd
00000210: da51 713d 15c5 f3ba 8aca 34bb deb1 7abd
00000220: e6eb 0bbc 2d75 a9bd 80e1 77bd 499a 9bbb
00000230: 52cd 433d b262 093d 8ba2 963d d9da c2bb
00000240: 7dd0 0bbd 5282 323d aebe 8ebd 32c4 72bd
00000250: 9b80 7ebd c937 19bd 448a 80bd 6476 f2bc
00000260: d299 73bd a1f2 bc3b c604 b83d f28d 273d
00000270: 526b 003d 70b1 62bc 6008 e23c 44c7 a6bd
00000280: 46ed 163d fd33 ab3d 8a9e 3c3d faf4 b33d
00000290: 13d0 803c fca7 85bd f408 38bd b995 8bbc
000002a0: 031d a0bc 15cf 8fba 99d3 55bd dbd9 22bd
000002b0: 600b 1dbc 3faa 763d e62c 8d3d 059a b23d
000002c0: 1cac f43c e7f3 95bd cfe3 503d be78 81bd
000002d0: 9033 89bc 6372 a7bd c0eb 9fbc f242 7cbd
000002e0: 45d1 b6bb 3134 8abd 92a2 7e3b 230d aebd
000002f0: dea7 0ebd 01b4 813d 7a37 7abd 677d 29bd
00000300: aa9c fdbc de92 aa3d bbaa 513d 083c 8a3d
00000310: c05f bc3b fe01 973d 7989 5fbc 9f05 b6bc
00000320: 0220 1ebd ac80 adbd 3b10 62bd 9462 84bd
00000330: 6cbd 423c 372e 15bd aa04 b8bc 12f4 95bd
00000340: ea27 fcb8 98e3 aebb 2540 70bd e254 b9bd
00000350: e701 893d df9d 44bd a668 96bd 850a 953d
00000360: ae15 8cbc a705 9bbd f295 8f39 ac4b a93d
00000370: 9d15 44bc 038c ed3c 7802 8c3d d9a0 af3d
00000380: 99eb 993c f8dc 19bd b0b6 bdbb 1476 523d
00000390: 350f dfbb 9ad3 89bd 060f 9ebd 3d99 803d
000003a0: 89b6 8abd 2330 a23d 5c52 b33a f03b 99bd
000003b0: 85c1 053c f0e9 313d c7ba 813d 78ee 803c
000003c0: b820 47bc 9020 47bc 41aa e6bc 0b4a febb
000003d0: 204c 58bb 48ac 8bbc f866 683c 9b01 29bd
000003e0: c145 563d 4d09 f7bc 0b03 b0bd 1fe2 4c3c
000003f0: ee0b 54bd 4f85 f0bc b6f1 68bd 6c46 7dbd
-0.043581136 -0.009740427 -0.026628599 -0.08107683 -0.03679255 -0.060050935 0.051041357 0.04736411
-0.011004806 -0.040192116 0.094889544 -0.029814102 0.06775505 -0.07312713 0.009304334 0.02011712
0.022651508 0.01921663 0.0028107613 -0.063812725 -0.06742834 -0.089686215 -0.039815925 0.07191586
0.049525827 -0.012590834 -0.064539045 0.06269414 0.046510153 0.021373834 -0.0524917 0.041956194
-0.014348231 -0.008764632 -0.06753579 0.07697433 0.043032788 0.0842166 0.07901669 0.027655395
-0.032249667 -0.024677463 -0.022967525 -0.06617497 0.08908301 -0.055396505 0.03917546 0.06279119
-0.10016286 0.052727636 -0.0013254214 0.005930394 0.08396412 0.0226693 0.042208448 0.06938402
0.07618757 0.088690765 0.006114086 -0.005870407 -0.02987494 -0.0548411 0.057834364 0.05254413
0.046846226 -0.06000185 -0.07711368 -0.015004641 -0.011047753 -0.042791802 -0.084496364 -0.002214395
0.04030434 0.07015804 -0.074854895 -0.054074097 -0.092799865 -0.04050116 -0.023595942 -0.024756279
0.030172462 -0.03741595 -0.050740935 0.08474652 0.05665485 0.031072995 0.026101679 0.03574951
0.042548195 -0.03201146 -0.08358977 0.052738227 0.08177908 -0.018348368 -0.0142902 -0.03754077
0.057839807 0.09392744 -0.052842297 0.076587185 -0.0011870055 -0.050699987 -0.05246347 0.079956375
0.0006599338 0.006580784 -0.028547877 0.061916146 0.01263344 0.07232647 -0.058358405 -0.05319122
-0.0045420304 -0.08429773 -0.014588048 -0.035702176 -0.008956604 -0.014485616 0.08673417 -0.021687409
-0.02323167 0.029295705 0.029718496 0.0112089105 0.027374811 0.05382266 -0.0037819594 0.0545348
-0.04068831 0.0052800984 -0.019037433 -0.07060694 0.05891595 -0.0018598164 -0.0027586543 -0.061204784
-0.008540129 -0.08274303 -0.060517788 -0.004748617 0.04780323 0.03354139 0.07355221 -0.005946499
-0.034134377 0.043581314 -0.06969963 -0.059269138 -0.062134366 -0.037406716 -0.06276372 -0.029597469
-0.059472866 0.0057662283 0.089852855 0.040906854 0.03135235 -0.01383625 0.027591884 -0.08143476
0.036847375 0.08359525 0.046049632 0.0878696 0.015724218 -0.06526181 -0.044930413 -0.017039167
-0.019545084 -0.001097175 -0.05220375 -0.039758544 -0.009585232 0.060220953 0.06893329 0.08720783
0.029867224 -0.07321911 0.050998505 -0.06321858 -0.01674822 -0.081761144 -0.019521594 -0.06158728
-0.005579146 -0.06748236 0.0038854224 -0.084985994 -0.03482806 0.06333161 -0.061088063 -0.04137936
-0.030958492 0.08328794 0.051188212 0.06749731 0.005748719 0.07373427 -0.013643616 -0.022219477
-0.038604744 -0.08471808 -0.05519126 -0.06464115 0.011885982 -0.036421027 -0.022463161 -0.07321943
-0.00012023731 -0.00533719 -0.058654923 -0.09049393 0.06689816 -0.04800212 -0.07344179 0.07277397
-0.017100181 -0.075694375 0.00027386803 0.082663864 -0.011968044 0.028997427 0.068364084 0.08575601
0.0187891 -0.037564248 -0.0057896003 0.05138214 -0.0068072327 -0.06729813 -0.07717709 0.06279228
-0.06773097 0.079193376 0.0013681161 -0.07482135 0.008163814 0.04343599 0.06334453 0.01573871
-0.012153797 -0.01215376 -0.028157355 -0.0077602915 -0.0033004358 -0.017049924 0.014184706 -0.041261297
0.052312616 -0.030155802 -0.085943304 0.012505083 -0.05176919 -0.029360441 -0.05687114 -0.061834738

perceptron.0.bias f4 [64]
00000000: b030 ab3d 385a 93bd 0fd2 5e3d 7acc 24bd
00000010: 2b42 5ebd 07f4 3cbd 22ca 4abd 23a4 80bc
00000020: c252 1f3d eca8 273d 9110 0ebd 9d24 993d
00000030: 840e ad3d a8e2 ff3c 583e 423d e653 a03d
00000040: 1030 9ebd bd1d 6b3d 8941 29bd de1a 9ebc
00000050: a627 dabc 7139 30bd d7d0 66bd f815 d7bc
00000060: bd5c 713d 9c7d 88bd 5478 493d 9c24 b43c
00000070: c75c 823c 51e9 deba 446a 2cbc 78c8 8c3d
00000080: 901e 433d b136 aa3d 82c5 ac3d 9c88 b53c
00000090: 41a6 b4bd a055 063d d533 94bd 1b46 35bd
000000a0: 39f2 883d 0d41 043d d5cf a0bd 0e16 10bd
000000b0: 8e74 393c c7a6 a43d 8b1f 863b 8bed d8bc
000000c0: 8760 a7bd f4d5 f3bc 4929 173d bc6a b6bd
000000d0: 3236 88bd aba0 063d d1a3 ddbc a565 523d
000000e0: 4c0a 9fbd 0242 5ebd ad05 30bd 5f39 86bd
000000f0: b8cc 2e3d 37be 3bbd 2d4d 68bd 8658 9dbd
0.08358896 -0.07194942 0.054399546 -0.040234067 -0.05426232 -0.04613116 -0.049509175 -0.015703266
0.038897283 0.04093258 -0.034683768 0.074776866 0.08450034 0.031236008 0.047422737 0.07828502
-0.07724011 0.057401408 -0.041322265 -0.01929992 -0.026630234 -0.04302353 -0.05635151 -0.026255593
0.058926333 -0.06664583 0.04918702 0.021990113 0.01591338 -0.001700679 -0.010523383 0.06874174
0.04763657 0.08311213 0.08436109 0.022159867 -0.08820773 0.032796502 -0.07236449 -0.04425631
0.06686825 0.0322886 -0.07852141 -0.035177283 0.011319293 0.08039623 0.0040931157 -0.026480457
-0.08172708 -0.029765107 0.036904607 -0.08907077 -0.06650962 0.03286807 -0.027055653 0.051366467
-0.07765636 -0.05426217 -0.042974163 -0.065539114 0.042675704 -0.0458357 -0.056714226 -0.076829

perceptron.2.weight f4 [64, 64]
00000000: 3964 6cbd a004 503d dcee 9c3c 40a0 f3bd
00000010: 74e6 8e3c 686a d1bd 3c78 843d 86e3 763d
00000020: 3831 8ebc 95ab 77bd 3edb 933c 01d4 bcbc
00000030: ff06 f1bd 6fd9 b7bd 9174 80bc 8c86 65bc
00000040: 12bc f6bc c15b ab3d 6be1 c0bc feab 32bd
00000050: f977 0bbc bf18 433d 4857 e13d 171a 36bd
00000060: 2db8 e03d 3498 1e3c 867c dbbd d032 90bd
00000070: e2e1 e7bd 90b3 4abd c811 91bd f591 c93d
00000080: 1f2d 1d3d 1116 b3bd bc9d e3bd c6da f1bd
00000090: b496 9bbd 746d adbd f697 66bd e543 01be
000000a0: fba8 75bd d8f1 79bd 87f0 24bd 0c6d 0f3d
000000b0: 41ae d03d 6f33 9abc b3cc c2bd 34f9 c2bd
000000c0: 9168 ec3d 3c00 a93d b06a 7ebd 8fe0 da3d
000000d0: 7dff dc3d 2974 a3bc b6c5 9f3d 7107 cfbc
000000e0: b4fe 1ebd 9f4c 50bc 42c9 f9bd 49ec 37bd
000000f0: 3e50 f1bc f007 e7bb e1fa 6b3d e4d6 24bd
00000100: 30c4 4e3d 5882 5b3c f59c e63d ca60 e3bd
00000110: 027c e5bc 5ebe 783c ca7f f63d e0fe 233c
00000120: 6a26 433d 03fc 653d 2371 a2bc 2e41 20bd
00000130: bf05 2cbc 4721 73bc 9c40 b0bd be1e df3d
00000140: fa88 ff3d c8d1 ae3d 4865 d33b ccf6 6e3c
00000150: 2df3 8f3d dbc0 f13d 6272 e13d c7b1 693c
00000160: f279 c93d e65a b73c 8bca 9bbd d3aa b5bd
00000170: 1f27 04bc cfdd 6f3c ce98 ea3c 4a0e 353d
00000180: 53ce f1bd e1d5 2dbd 328a 963a c8e2 82bd
00000190: 7157 383d 011a d8bd be14 2cbd 02fc ccbc
000001a0: 69a2 993c bf5e db3d d146 b43d 24cb 9d3d
000001b0: 49f8 773c 86e6 d73c 0c8d 93bd 61a7 00bd
000001c0: b456 c9bd 3d77 2ebd 6519 2cbc 311d 58bd
000001d0: 55fe b63d e656 b43c fa67 e5bd 76e6 c43d
000001e0: 5061 0bbd 9c97 cf3d 2804 bbbd 23d9 3abc
000001f0: 8b15 e43d c7d2 d4bb adf7 cdbd 9486 8b3c
00000200: 07f4 aabd 47d1 4dbd 69d3 aebd fc7d 04be
00000210: 05c5 8fba f7a8 663d 81b3 fb3c 7b37 9ebc
00000220: d8f1 fbbd 1740 943c 8f9e d8bc aeba b4bc
00000230: 355c 11bc 0a5b a63d 8cf2 6d3d 1137 16bd
00000240: 4cf0 af3c 4f4d 96bd 0591 d6bc aec2 61bc
00000250: a18c 013d 9ce5 823c 065f 903d 819a 01bc
00000260: fac5 8cbb eb22 f23c 04b5 db3d 361b 753d
00000270: b38a 793d de04 c03d 0bea debd 8a87 203d
00000280: dd94 c3bd 2d70 853d 0910 adbd 6943 ba3d
00000290: 9361 4cbd cc97 d33d 885c a5bd bb54 c4ba
000002a0: 0842 44bd 4c65 09bd 18b0 ac3d 8c25 aebd
000002b0: 735c b33d 1389 503d 15dd f1bd 97a4 be3d
000002c0: 6af9 81ba 467b be3d 53ac 61bc 9f44 f6bc
000002d0: 54c5 853d e9e1 ed3c 2bab 433d d8c5 dfbd
000002e0: 063d 0abc 3b35 37bd aab1 5dbc ac25 e3bd
000002f0: c6fd 2ebd 2328 00be 73f8 593d 73b4 313d
00000300: cb52 c23c 0275 4dbb 3245 1c3b 7849 b23d
00000310: a9c9 22bb d863 3bbd b48c b53c a808 cebd
00000320: aca3 1abb abfc c93d dbe6 5b3c 7570 0c3d
00000330: 757b 1a3c 59e1 90bd c60c 823d 328a e13d
00000340: ede7 0dbd c6cc e8bd a9d4 363c f33c 9c3b
00000350: a81e 033d 60c7 b0bd 53f6 82bd 6b7b 8bbd
00000360: d8a9 a7bb 6625 833d ba93 1c3d b90a 043d
00000370: b205 a13d aea0 1cbd 51cc 003e 319b ccbd
00000380: 0152 d13d bcdd 13bb eb71 733d 646f 86bd
00000390: 11bc da3d 5d55 b1bd 95be d43d 351e ef3d
000003a0: bef7 873d 0f3a ce3c 4854 6d3c 4a25 963d
000003b0: 38a7 e8bb 9d07 8a3d 9462 6ebc 6871 f13d
000003c0: 4e82 f7bc 0072 f8bd 71eb cf3d 9e30 023d
000003d0: 39de cebc dea0 a8bd 4ad7 903d 42a9 b2bd
000003e0: b809 9f3d 5416 59bd 84ad d13d 3953 73bd
000003f0: e5ef 81bd 683a 6a3d 5278 1dbd 1447 0b3c
-0.057712767 0.05078566 0.019156866 -0.118958 0.017443873 -0.102253735 0.064682454 0.060275577
-0.017357454 -0.060466368 0.018048879 -0.02305031 -0.117689125 -0.08977019 -0.015680583 -0.014009129
-0.030118976 0.0836711 -0.023544988 -0.043621056 -0.00851249 0.04763102 0.11002976 -0.044458475
0.10972629 0.009679843 -0.1071711 -0.07040942 -0.113223806 -0.04948765 -0.0708347 0.09842292
0.03837311 -0.08744443 -0.1111407 -0.11809306 -0.07597104 -0.08468142 -0.056297265 -0.12623556
-0.059975605 -0.061021656 -0.040268447 0.035016105 0.10189486 -0.018823354 -0.095116995 -0.09520188
0.11543382 0.08251998 -0.062113464 0.106873624 0.10790918 -0.01995285 0.07801382 -0.025272103
-0.038817123 -0.01271358 -0.1219659 -0.044903073 -0.029457208 -0.007050507 0.057612304 -0.040244
0.050480068 0.013397776 0.11260406 -0.111024454 -0.028013233 0.015182106 0.120360926 0.010009497
0.047644056 0.05614854 -0.019829338 -0.03912466 -0.010499417 -0.014839477 -0.08606073 0.108945355
0.12477298 0.08536106 0.0064512827 0.014585208 0.07028804 0.118043624 0.11008145 0.014263577
0.09837712 0.022382211 -0.076069914 -0.08870473 -0.008065968 0.014640286 0.028637316 0.04420308
-0.11806931 -0.0424403 0.0011485277 -0.06390911 0.045005266 -0.10551835 -0.04201197 -0.02502251
0.018754201 0.10711431 0.0880257 0.077047616 0.015134879 0.02635504 -0.07204637 -0.031409625
-0.098309904 -0.042594183 -0.010504101 -0.052762214 0.08935229 0.022014093 -0.112014726 0.096142694
-0.03402835 0.10136339 -0.09131652 -0.0114043085 0.111369215 -0.006494853 -0.10057006 0.017031945
-0.08347326 -0.05024841 -0.08536417 -0.12938684 -0.001096875 0.05631348 0.030725243 -0.019313565
-0.123019874 0.018096967 -0.026442794 -0.022061672 -0.0088720815 0.08122833 0.05809264 -0.03667361
0.021476887 -0.07338964 -0.026192198 -0.013779325 0.031628255 0.015978627 0.07049374 -0.007910372
-0.0042960616 0.029557666 0.10727885 0.059840403 0.06092329 0.09375928 -0.10884484 0.03919176
-0.09549878 0.065155365 -0.08450324 0.09094889 -0.04989774 0.10331687 -0.080742896 -0.0014978865
-0.047914535 -0.03354387 0.08432025 -0.08503255 0.08757868 0.050911974 -0.11809746 0.09308737
-0.000991625 0.09300856 -0.013773995 -0.030062018 0.06531778 0.029038386 0.04777066 -0.109264076
-0.008437401 -0.0447285 -0.013531128 -0.1109117 -0.042722486 -0.12515311 0.053215455 0.04338498
0.02372112 -0.003135026 0.0023844955 0.08705419 -0.0024839437 -0.045749515 0.022161819 -0.10060245
-0.0023596091 0.09862646 0.013421739 0.034286935 0.0094288485 -0.07074232 0.063500926 0.11012687
-0.03464501 -0.113671824 0.011159101 0.004768008 0.032011658 -0.08631778 -0.06394639 -0.068106495
-0.0051166825 0.064036176 0.03822682 0.03223679 0.078624144 -0.038239174 0.1257794 -0.09990538
0.10220719 -0.0022562584 0.059434813 -0.06564215 0.10680402 -0.0865886 0.10387913 0.116756834
0.0663905 0.025174169 0.014485426 0.07331331 -0.007100012 0.06739733 -0.01454987 0.11789209
-0.030213501 -0.12131119 0.10152329 0.031784646 -0.025252448 -0.08233808 0.07072313 -0.087236896
0.077655256 -0.05299981 0.102381736 -0.05940554 -0.063445844 0.057184607 -0.038444825 0.008500833

perceptron.2.bias f4 [64]
00000000: 8260 403d 4db1 173d 63ae bf3c 633b 723d
00000010: 2570 cebd 0852 e3bd ac60 d33d 18af a63d
00000020: 4f7d 2cbd 3e8b 18bd ed88 a83d 5d58 4cbd
00000030: bf4e 52bb 4d36 a13d d97a ea3d 3598 8dbd
00000040: 14f9 263d 9a54 efba 904b 2f3d 5e5f cdbc
00000050: 4fac 03bd 340e 5f3c 997a fe3d 42b1 0b3c
00000060: 14fc cebd 9b88 f03c f5b2 93bc 712d d2bd
00000070: a17c a73d f255 debd 76a4 9abd 6cbf 473d
00000080: 739e 3cbd 34cd 893d fe48 4b3d 5622 06bd
00000090: c111 753d 034b c03d 5f39 bd3d 71b3 debd
000000a0: ccf8 d53b 1435 92bb b6a9 1f3d b18a dc3b
000000b0: ef17 afbd 1107 c0bc abf5 f3bd 9e6b ea3d
000000c0: 69c8 b73d ead1 bd3d c070 afbd 4894 d83d
000000d0: b830 1a3d 8814 8a3d b4a9 2ebd 3466 fe3d
000000e0: c59a 543c aac5 c5bc d9a1 02be 27a5 be3d
000000f0: a08f 38bd 40cb e43d e148 32bd 6429 e8bd
0.046967037 0.03703432 0.023398584 0.059138667 -0.100799836 -0.110996306 0.10321173 0.08138865
-0.04211169 -0.037242167 0.082292415 -0.049888957 -0.0032090393 0.07871685 0.114492126 -0.06913797
0.040764883 -0.0018259466 0.04279667 -0.025069889 -0.03214675 0.013614226 0.124257274 0.008526148
-0.10106674 0.029362014 -0.01802967 -0.102625735 0.08178068 -0.108562365 -0.075509 0.04876654
-0.046049546 0.067285925 0.049630158 -0.03274759 0.059831385 0.09389307 0.09239458 -0.108740695
0.006529903 -0.004461894 0.03898021 0.0067304005 -0.08549487 -0.02344087 -0.11912092 0.114463076
0.08973772 0.092685536 -0.08566427 0.105751574 0.037644118 0.06742197 -0.04264231 0.124218374
0.012976353 -0.024142105 -0.12757052 0.09308844 -0.045058846 0.11171579 -0.043526534 -0.1133602

perceptron.4.weight f4 [64, 64]
00000000: 1bdc fbba d53b 013e eb16 443d 7c81 f2bd
00000010: 9d8f babd 0b20 c13c 0d0d 2f3d cdb6 44bd
00000020: bd16 8fbd 2fc3 eebd 1ae5 83bd 88db f3bd
00000030: 699c 103d 8775 cfbd 60b6 563c 4360 b1bd
00000040: 6fd7 2f3c 3a81 cebd 130f e33c f627 a8bd
00000050: 0390 9e3d 2b23 bdbd 4073 163d c1d7 be3d
00000060: 592c 0dbd db5e 6a3d 4bbc e7bd 973e 31bb
00000070: d1e3 f33c 46ad bcbd 51de 653d 57bc aa3d
00000080: 920b 8e3d c596 b93d 44a5 c6bd ee62 ed3d
00000090: 2594 ef3d 529e 833d 80ed 33bc a7ea 6ebd
000000a0: 0094 7bbd 4312 b03d 2659 9dbd f3a0 cabd
000000b0: c757 a3bd 0067 80bd 1880 b33d a1b0 74bb
000000c0: 07ae 7c3d 8e97 ecbd 0569 e1bd 5bef c9bc
000000d0: a37d 463c 750e 0ebd f312 53bd 59ec 703d
000000e0: 3a2c aebd a3d7 87bd 8f25 513c fa0f 6e3d
000000f0: 1d78 b4ba 3b03 363d f763 bdbb 4080 69bd
00000100: 527f b9bb c7a6 ee3d 30be aebc 2605 de3c
00000110: fca5 063d 6a5f c63d 8be7 16bd 57d5 7dbc
00000120: dd65 df3d 52eb e83c f32b c3bd a436 42bb
00000130: 52ac c83c de44 ccbd 1a45 90bd 51be 54bd
00000140: 1423 b93d 7fa4 6bbd dae8 3c3d 6003 9dbd
00000150: 3958 533d 8766 16bd 5e63 a63d 840d d03b
00000160: e3bb 2e3d c341 203d c0e5 c6bd 5452 a03c
00000170: d2b8 b63d e04a 5c3d 0858 bfbd b575 a43d
00000180: f3f5 3dbd de2e 1cbd 2d95 adbd 660d 5bbd
00000190: 2622 b8bd 56f9 4b3d e2d7 24bd 62a8 703d
000001a0: 0e1a b3bd f6ea b13d 801d 9cbd a206 afbd
000001b0: edca 42bc d621 8f3d db95 80bd a34e e6bd
000001c0: b59a bebd 631c c13d 65d7 8cbd bdfb 273d
000001d0: 9c4c 76bb b24d b73c 7535 a23d 3128 823d
000001e0: 72cb 45bd f5ac ad3d 6f57 a03d 8a99 eabd
000001f0: b34a 82bd 3be9 87bd f3f3 9fbd 0392 e23d
00000200: 391e bc3d 9051 a9bd 5503 8b3d f436 d83d
00000210: 7059 d83d 24be b33d a414 993d 9e72 bb3b
00000220: f041 25bd 9259 b93c 02de 2ebd 21b1 be3d
00000230: 0787 2bbd a6fe 89bd 55f7 e6bd 7efc 4abd
00000240: 1540 b1bd a317 9b3d 7f9b 48bd 6692 3b3d
00000250: 6c0c 15bd 124c d93d 6fb9 de3c 5e00 d2bd
00000260: aefe e2bd d44e 8e3d 6716 c93d fbb1 633d
00000270: bd78 fa3d aaa2 d83d b1e8 8b3d f0df 1e3d
00000280: 8ed0 403d 6a8d ed3b 51b6 633d 6622 a03d
00000290: a29a dabd a85e de39 cd0a 543d b7b2 0ebd
000002a0: afe6 d13d d4bd f5b8 34cb 2abb 6349 2e3d
000002b0: 2e33 4fbd 27e7 1ebd 59b8 743d 0176 b6bc
000002c0: 9c20 10bd 6c4b e5bd 80e2 fc3d f4cc 9e3c
000002d0: cf61 11bd bb4b 96bd 0e20 dcbd 9846 833d
000002e0: 0294 4bbd 4e87 b63b bd75 e33d 480a 3ebd
000002f0: fe47 5ebd acf5 0fbd 459f 03bc dfe2 863d
00000300: 1d0d ec3d 9209 3abc e41d 7ebd ebad 2d3d
00000310: 8817 e03d e893 7fbd 01c1 a1bd 7d90 fb3d
00000320: 2814 a93d 0904 5a3d 19d6 ab3d 2467 d6bd
00000330: 55fd 033d d45b df3a 1f8e abbd 8725 9d3d
00000340: 6447 b73d 2832 a3bd 29d3 443d a615 9dbd
00000350: 7bc3 1fbd a8f2 d53d 8d89 593d 223f 663c
00000360: 692d 363c db1a 38bd 4d44 89bd a02f ec3d
00000370: 0ecc 513d 492b f5bd 90d4 d5bc 96b7 7d3c
00000380: c63f c13d 2430 f6bd 0ced 35bd 06fc f3bc
00000390: e1e5 883d 57f4 b93d 1942 d23c 633b 42bd
000003a0: 79f8 ab3c f846 c8bd 8e0e 1c3d 49a3 823d
000003b0: 6b07 583c 6d16 a3bd b8ba 1b3d d7db 39bb
000003c0: 30ce c5bd 12f0 cd3c 50df 6c3d bc7e fbbd
000003d0: b038 5cbd f0aa 543c 0603 97bd 6912 a6bd
000003e0: d914 53bd d448 d2bd 091b a53c d5f8 f03d
000003f0: 6ae1 4a3c ab13 60bd 74a4 f0bd c0f3 f3bd
-0.0019215377 0.1262048 0.04787342 -0.118411034 -0.09109423 0.02357485 0.042737056 -0.048025895
-0.06986759 -0.11658322 -0.06440182 -0.11907107 0.035305414 -0.101298384 0.013105005 -0.086609386
0.010732516 -0.10083242 0.027717149 -0.08210747 0.07742312 -0.092352234 0.036731005 0.093184955
-0.03446612 0.057219367 -0.11315211 -0.0027045363 0.029771717 -0.09212737 0.05612022 0.08336704
0.069358006 0.0906196 -0.09699491 0.11591135 0.11698178 0.064266816 -0.010981917 -0.05832925
-0.06142044 0.08597233 -0.07683019 -0.0989398 -0.079757266 -0.06269646 0.08764666 -0.0037336724
0.061689403 -0.11552344 -0.11006359 -0.024650266 0.012114915 -0.034681756 -0.051531743 0.05881915
-0.08504529 -0.06632926 0.012765302 0.058120705 -0.0013768707 0.044436675 -0.005779739 -0.057007074
-0.0056609297 0.11652904 -0.021330923 0.027102064 0.03287314 0.096861675 -0.03684191 -0.015492759
0.10908101 0.028432522 -0.09529867 -0.002963462 0.024496231 -0.09974073 -0.0704443 -0.051939312
0.09039894 -0.057529923 0.046120502 -0.07666659 0.051597808 -0.03671887 0.081244215 0.0063492674
0.04265965 0.039125215 -0.0971179 0.019570507 0.089219704 0.053782344 -0.093429625 0.08030263
-0.046377134 -0.038130634 -0.08475719 -0.053479575 -0.08990888 0.049798332 -0.040244944 0.058754332
-0.08745204 0.08687393 -0.07622814 -0.08546187 -0.011889202 0.069888756 -0.06278583 -0.112454675
-0.09306852 0.094292425 -0.06877021 0.04101156 -0.0037582284 0.022375915 0.07920352 0.06355322
-0.048289724 0.084802546 0.07829177 -0.114550665 -0.06361904 -0.06636282 -0.078102015 0.11063006
0.09185452 -0.0826751 0.06787745 0.105573565 0.10563934 0.08776501 0.0747464 0.0057204505
-0.040346086 0.022625718 -0.042692192 0.093111284 -0.04187682 -0.067380235 -0.112776436 -0.0495572
-0.08654801 0.07572868 -0.048976418 0.045793913 -0.0363888 0.106102124 0.027188031 -0.10253976
-0.110837325 0.06948629 0.09818726 0.055589657 0.1223006 0.10577901 0.06831492 0.038787782
0.047073893 0.007249524 0.055593792 0.07819061 -0.10674025 0.00042413664 0.051768113 -0.034838405
0.102490775 -0.000117178686 -0.002606106 0.042550456 -0.050585918 -0.038794663 0.05974612 -0.022273066
-0.03518735 -0.11196026 0.12347889 0.019384839 -0.03549367 -0.07338663 -0.107483014 0.06409949
-0.049701698 0.005570329 0.11106441 -0.046396524 -0.054267876 -0.0351464 -0.008033578 0.06586241
0.11525939 -0.011354821 -0.062040225 0.04240219 0.10941988 -0.062396914 -0.07898141 0.12283418
0.082557976 0.053226504 0.08390445 -0.10468891 0.032224018 0.0017040917 -0.08376717 0.076731734
0.089491636 -0.07968551 0.04805294 -0.07670145 -0.039004784 0.10446674 0.053109694 0.014053138
0.011119225 -0.044947486 -0.067024805 0.11532521 0.051219992 -0.119711466 -0.026102334 0.015485665
0.09435992 -0.12020901 -0.04441552 -0.02978326 0.06684471 0.09079807 0.025666283 -0.047419917
0.020992504 -0.09779161 0.038099818 0.063788004 0.013185362 -0.07963262 0.038019866 -0.0028359795
-0.09658468 0.025138889 0.057830155 -0.12280032 -0.053765 0.012980208 -0.073736235 -0.0810898
-0.051533554 -0.10267797 0.020154493 0.11766211 0.012382844 -0.054706257 -0.11750117 -0.11911726

perceptron.4.bias f4 [64]
00000000: d5dd 3bbd 0ccf c4bd fe66 a73d 71bd 973d
00000010: 50eb d7bd dbee 9fbc 1b54 01bd eba7 00bd
00000020: 9e39 98bd 6ddc ee3b 20e0 debd f9ce 583d
00000030: 4201 92bd 6f6c bf3d 0d24 48bd b328 6bbd
00000040: 311d cdbd 6e2f e5bd c71f 193b 27d6 fe3b
00000050: 35c4 b1bc f2cf 8b3d e2ab 74bc 093c ddbd
00000060: 1062 b8bc c2c4 93bd 5bac a13d 0723 8bbd
00000070: 2484 2e3c 5125 cd3d 8a1e b03d 84c9 d4bd
00000080: 2019 efbd d13f b2bd 2f20 28bd a173 52bd
00000090: efc1 82bd 74ed c4bd 9897 edbc 41ba 913c
000000a0: 7a4c 4dbd 2465 2bbd a8d4 933c 0bfb 9abd
000000b0: 3aef 463d b8ad dabb b775 ffbd 68e0 b4bc
000000c0: 2de2 8fbd 8207 1abd 16ea 1abd 1607 2bbd
000000d0: 42e6 7abd 037e e3bd a86c 263d 2068 8fbd
000000e0: a44a 70bc a97e 203d 171a c2bd 0b55 f83d
000000f0: 81f1 26bd a5eb 963d 8074 c53d d2ce 543d
-0.045865852 -0.096098036 0.08173941 0.0740918 -0.10542929 -0.019523075 -0.03157435 -0.03141014
-0.074328646 0.0072894604 -0.10882592 0.05293176 -0.07129146 0.09346854 -0.048862506 -0.05741186
-0.100153334 -0.11190687 0.0023364888 0.007776994 -0.021700004 0.06826772 -0.014933558 -0.108024664
-0.022507697 -0.07215263 0.07894202 -0.0679379 0.010651622 0.10016883 0.08599575 -0.103899986
-0.11674714 -0.08703578 -0.041046318 -0.051379804 -0.06384646 -0.09615603 -0.02900295 0.017789008
-0.05012176 -0.041844502 0.018045738 -0.07567414 0.048567988 -0.006673541 -0.12473624 -0.022079661
-0.070255615 -0.037604816 -0.037820898 -0.041754805 -0.061254747 -0.11108019 0.040630966 -0.07002282
-0.014666233 0.039183293 -0.094776325 0.12125596 -0.04075766 0.073691644 0.09641361 0.05195505

perceptron.6.weight f4 [5, 64]
00000000: 2e1d 813c 5cf6 6dbd 7d0d 983d 8681 7fbd
00000010: 3f3a debd 3aec 59bd f725 813d 0a29 ab3d
00000020: 8584 ed3c e2c2 9b3c 1479 f4bd ba6b 90bc
00000030: bc25 b83d 2f1f 49bc f54a 813d 0e1d 223d
00000040: 7ecb d73c 4e47 c93d d1ec debd 8b2c e0bd
00000050: 84f1 a7bd 41a3 7b3c ba90 2e3d 818a b5bd
00000060: bb46 58bd bdd8 dbbd 0b47 8ebd be10 e93d
00000070: 63ed ebbd 2a1b d93c 378c 17bc 3294 a03d
00000080: fafa efbd 9f25 9a3d e09b e83d 82b2 89bd
00000090: a2f1 803d 2176 043d 9612 28bd d08c 433d
000000a0: 13bd dbbd 6dcb c9bc af5a dabd 25b1 06bc
000000b0: 9aa1 75bd 68eb 4dbd c3f0 6bbd 5710 363c
000000c0: 93fe 4f3d 65be 893d 79cd 91bd 4c28 4dbd
000000d0: fe80 3fbd aaa0 243c 9103 3abd 4298 7d3d
000000e0: a99a 1e3d a284 f83a 897a 11bd 3f74 d13d
000000f0: 7fc1 2cbd 1ede 82ba 35ab 8abd 0961 c83c
00000100: 874e 163d 03ee 60bc 4c3e 0dbb a763 26bd
00000110: 69d9 c1bd 2ccb 3bbd 9bf5 eb3d 47b2 8cbd
00000120: 7878 62bd f258 e7bc 66de 44bd d137 603d
00000130: d166 293d d0aa d1bc 6f03 333d 5967 203c
00000140: 7b72 90bd e54b 08bd f19d d4bd e398 73bd
00000150: 613c 193d 4230 ac3d f22d 88bd e695 79bd
00000160: 20a8 83bd 260d 9f3c 5401 ae3d 3a41 8abc
00000170: 04fd d63d cb44 883c 8ee5 de3d e4d7 bb3c
00000180: 6aae e0bc 12b6 653d c6cd cb3d 31a1 f3bd
00000190: 142d 683d 9e9d 8c3d d98b 293c 889a 34bd
000001a0: 4efd e9bd c026 133d bb77 a53d a607 4e3c
000001b0: 2504 a3bd c877 3dbd cf2f 99bd 344b b53b
000001c0: 887a 85bd 5aa2 0dbc f7ad 4d3d 09a8 7d3d
000001d0: 1c3d 7fbd e7d5 de3c 99d7 a9bd f2a9 a2bd
000001e0: 43c8 84bc 204f 91bd 9e03 2b3d f377 de3c
000001f0: f7d6 e73d 7b31 0abd 45a7 b13c 4b05 143c
00000200: 1804 05bd 4823 7dbd 9017 00be 443a 8d3d
00000210: bfc9 19bd c95e 093d 13da 3c3d baa9 c23d
00000220: 1804 233d 7152 113d e2f0 103d 5290 22bb
00000230: 9f5b 91bd f395 e53b e860 193d 4f76 7abd
00000240: dc8f ee3d e144 573d b4e1 0a3a 82a1 dc3d
00000250: d3c3 bf3d 8985 2fbd 37ae 92bd d3f1 f93c
00000260: ecdb 6f3d e1fe a8bd 03a3 b5bd 5eca 5dbc
00000270: 3704 97bd 4ec4 643c b434 223d 947f d6bd
00000280: cbe2 cdbb 82fe dcbd c0db e43d ac0d 81bc
00000290: c887 bdbc 2b36 82bd 6f40 d7ba 9f9a 023d
000002a0: e912 a63d 06b9 e8bd dd63 83bd d665 f2bd
000002b0: ed26 99bd 0be2 babc 2759 5e3d ee40 b4bd
000002c0: aa81 9ebd 309b e4bd bba9 863c 136f b6bd
000002d0: b2be 823d cf8f 9bbd c282 f63d a076 6a3c
000002e0: f5cd 8a3c b7f2 a3bd 1ac9 c0bc 0e93 c9bd
000002f0: 4f9f 8fbd bd73 5dbd 561f b33c 8a48 863c
00000300: 0da7 cabb 32e2 973d a0aa f1bd 1127 a33d
00000310: 5b05 96bc 0aa8 03bd 3f65 9e3d e21e b2bc
00000320: 1191 1e3c 24d4 b33d 2905 d23d 3acd d7bd
00000330: 35d6 eabd 552a f0bd 3ff3 053c bd0e 28bc
00000340: 1177 0fbd 83e1 e7bd c615 eabd 041f a0bd
00000350: 71b0 633d 5cd2 af3d a4ef fc3c 6626 8cbd
00000360: e1ee eebd 658e 773d f6a8 c93d 789e c43d
00000370: a05e 15bd 4958 c53d cbac 6dbd 9ce9 773d
00000380: 8662 373d b4a5 e13d 7fc7 83bc 78af ee3c
00000390: 611e c7bc 08b6 a4bd cc88 f53d dcaf d1bd
000003a0: 3c5b da3d ef26 abbd 1105 a5bc 8a4e 873d
000003b0: 6ff0 f63d bc50 aabd 9e22 c1bd 970b 8eba
000003c0: 798e f3bc 357d 1b3d 06a3 6dbd 838c d53d
000003d0: 536e 7c3d a497 c7bd 95ac 9cbd 1529 fa3d
000003e0: e7e5 2ebc b0ca 97bd 0984 f8bb d4b5 67bd
000003f0: fb49 92bd db60 c63d 064d 2e3c f727 bf3d
0.015760984 -0.058096275 0.07424448 -0.062379383 -0.10850953 -0.0532038 0.06306069 0.08357437
0.028993854 0.019013826 -0.11937156 -0.017629493 0.08991572 -0.012275501 0.06313125 0.03957849
0.02634215 0.098280534 -0.10885013 -0.10945996 -0.08200362 0.015358747 0.04261849 -0.08864308
-0.05280183 -0.10734699 -0.06947144 0.113801464 -0.11519887 0.02650221 -0.009249738 0.07840766
-0.11717792 0.07526707 0.11357856 -0.06723501 0.06296088 0.03233922 -0.04103335 0.04774171
-0.107294224 -0.024633134 -0.10661828 -0.0082209455 -0.05996857 -0.05027333 -0.057602655 0.011112294
0.05077989 0.06725768 -0.07119269 -0.05008726 -0.046753876 0.010048071 -0.045413557 0.061912782
0.038721714 0.0018960426 -0.03551725 0.1022725 -0.04217672 -0.0009984409 -0.067709364 0.024460332
0.036695983 -0.013728621 -0.0021552024 -0.04062238 -0.09465296 -0.045848057 0.11521455 -0.06869941
-0.05529067 -0.028240655 -0.04806366 0.05474073 0.04135782 -0.025594145 0.043704446 0.009790265
-0.070530854 -0.033275504 -0.103816874 -0.059471976 0.037411097 0.08407642 -0.066493884 -0.06093397
-0.06428552 0.01941545 0.08496347 -0.016876806 0.10497478 0.016634366 0.10883628 0.022930093
-0.027426917 0.05608184 0.099513575 -0.11895979 0.056683615 0.068660006 0.010348284 -0.044092685
-0.11425267 0.035925627 0.080794774 0.012575066 -0.07959775 -0.04625681 -0.07479822 0.0055326466
-0.065175116 -0.008644665 0.050214734 0.06192783 -0.062314138 0.027201606 -0.08293075 -0.07942571
-0.016208773 -0.0709517 0.041751496 0.027156806 0.11320298 -0.033738595 0.021686206 0.009034465
-0.032474607 -0.061801225 -0.12508988 0.06895879 -0.037545916 0.03353766 0.04610641 0.09505029
0.039798826 0.035479013 0.035385974 -0.002480526 -0.070975535 0.0070064007 0.037445933 -0.061147984
0.11648533 0.052555922 0.00052979146 0.10772993 0.093635224 -0.04285196 -0.07162135 0.030510819
0.058559343 -0.08251739 -0.08868983 -0.013537018 -0.07373851 0.013962818 0.039601043 -0.10473552
-0.0062831393 -0.10790731 0.111747265 -0.01575359 -0.023136035 -0.06357988 -0.0016422401 0.03188574
0.081090756 -0.113634154 -0.06415532 -0.1183583 -0.07478128 -0.022812864 0.05428424 -0.08801447
-0.07739575 -0.11162412 0.016438356 -0.089079045 0.063840285 -0.07595789 0.12036659 0.014310509
0.016943911 -0.080052786 -0.023533393 -0.098425016 -0.070128076 -0.054065455 0.021865528 0.016392011
-0.006184465 0.0741619 -0.11800122 0.07966436 -0.0183131 -0.032142676 0.07734155 -0.021743242
0.009678141 0.08780697 0.102548905 -0.10537191 -0.11466638 -0.11726824 0.00817567 -0.01025742
-0.03502566 -0.1132231 -0.11429934 -0.07818416 0.05558819 0.08585045 0.030875988 -0.068432614
-0.11666656 0.060438532 0.0984668 0.09600538 -0.036467195 0.0963598 -0.058026116 0.06052552
0.044771694 0.110179335 -0.016086338 0.029136404 -0.024306478 -0.08042532 0.119889826 -0.10238621
0.10661933 -0.08357035 -0.020144017 0.06606777 0.12057578 -0.0831618 -0.09430431 -0.0010837194
-0.029731022 0.037961204 -0.0580168 0.10427191 0.06162865 -0.0974572 -0.07650105 0.12214867
-0.01067493 -0.074117064 -0.007584099 -0.05656989 -0.07143017 0.096864425 0.010638481 0.093337946

perceptron.6.bias f4 [5]
00000000: 8811 e8bc bab7 ef3c 9db6 f5bd d135 e3bd
00000010: ddce fa3c
-0.028328672 0.029262412 -0.11997721 -0.11094249 0.030616218
