models/value_fn.pt (torch_old, 65750 bytes, 7 tensors)

perceptron.0.weight f4 [64, 119]
00000000: e012 313e 7f6e 2abd fc5a c0bd 7ed6 97bd
00000010: 63f7 2c3e 66f4 943e 04e0 acbd 38c2 053c
00000020: 5a32 773d e8b6 593e 53a7 983e 6425 ee3b
00000030: 39a8 27be 59da 9a3a 2701 933e d813 8a3e
00000040: 29b2 19bd b0ba 6b3d 5063 9cbb ee41 a33e
00000050: d992 863e 7096 db3d 90e9 34be 17bf 1ebd
00000060: 9dec 603e 1da8 393e e8fd a53c 6ac1 4b3e
00000070: 737d 593e 5015 883e 8ea5 943e 58e0 a53d
00000080: f025 d53b 52e9 24bd 9ffa 963e 8449 a13e
00000090: 19d5 ba3d a8c4 4ebd ec6d ac3c 8a26 1a3e
000000a0: f879 903e 2228 66be 4110 643c 351c 2ebe
000000b0: 1db6 663e 4342 543e c00b 7f3c ed4a b03d
000000c0: 6faa 7f3e a2dc 6d3e 4c01 823e 0b41 21be
000000d0: fc6b 39be 74a1 dabd 1183 333e 5981 883e
000000e0: e0ce a6bd 9099 cabc 3d45 9a3e a295 7d3e
000000f0: 12ee 3a3e 4e0c 22bc 94c2 febc a882 7fbe
00000100: 3dcf 9f3e a2d9 4f3e d40c 203e 5775 913e
00000110: a8a9 a43e d8cc 3a3e e9e1 793e fc6b 0ebe
00000120: 115d dcbd f697 32be 7c95 383e 7734 7a3e
00000130: bc64 0f3e 4cee 7dbd bb26 073e c801 823e
00000140: 009b 173e 5530 e33b 4805 f8bd 27f6 b8bd
00000150: d4ac 9e3e afee 1c3e 3c4d 5f3e 2fc1 553d
00000160: 93f5 353e 3dd3 0d3e 0036 7e3e 5f41 b53d
00000170: e7d3 293e 7b5c c73d ba35 8a3e 6437 0f3e
00000180: 823e c83d 54c5 613e f795 ee3d fb08 983e
00000190: a5de 843e e6be 483e 6d65 823e 17ac 063e
000001a0: ab34 3e3e 88b6 1cbe 2f3d 243e 95fa 74be
000001b0: 5650 663e b16c 76be dc2f 5fbd 5085 9b3e
000001c0: 0a13 4d3d 8095 43be f494 27be a5b5 443e
000001d0: 0de6 813e fbee 87be 3248 3e3e 23ac fdbc
000001e0: f8e4 95bc 51b6 853d 849f 9bbc 81a1 633d
000001f0: 4e47 913d d3f9 853d e97e 953d 76d1 5f3d
00000200: 161a c63c a10d 53bd c0ca 81bd 3886 e33c
00000210: 0058 213c d482 2dbb 9b9a bbbd ded0 373d
00000220: c414 aebc a02d 2b3b 02d8 a53d e992 a6bd
00000230: 602b c1bc 598c 9f3d 73af 5fbd c375 d7bc
00000240: b4f5 853d 70eb 0fbc 96c9 1f3d b381 9b3d
00000250: 2374 d6bc d35f 86bd 29a6 a23d fbcb 61bd
00000260: a6bc 093d 15c5 283d f9a6 3cbd 443f bb3c
00000270: f646 293d 8d2c 8d3d 849a 8f3d 8974 7c3c
00000280: 1b7b b83d 8833 9abd b646 85bd ad06 5e3d
00000290: ed5b 313d 8068 bb3c 50ed 91bc bd1f 56bd
000002a0: c42b 993b 0f8a 97bd 3b37 a13d 488d c03c
000002b0: a81f 083c a5df b1bd ddfb 373d 0042 163a
000002c0: cd91 8a3d 8368 92bd 90e9 a43d c73e cfbd
000002d0: a649 463d 4400 ccbc c0e4 4cbb 7056 9a3d
000002e0: 6272 b63c ad49 aebd a889 02bc 806d 41bc
000002f0: 31ab e83c 3721 66bd 40d0 f93b 5d85 913d
00000300: 71d2 aa3d 8843 6ebc 2562 bbbd 555c 813d
00000310: 400e 2dbc fae6 793d 04de f93c d452 943d
00000320: 2289 0a3d a4ec a2bd 863d 743d 80c2 b0bd
00000330: a9d3 493d 0323 62bd 2037 063b 5f5c acbd
00000340: d188 32bd 10ef a2bb 10e9 073d d7f4 50bd
00000350: b812 b1bd 5d15 223d 600f 153c 57c4 74bd
00000360: 9058 a2bb 0a1e 1f3d f5a7 89bc 0643 c6bd
00000370: 25db 893d 7161 98bd 74a1 5e3b 50f6 4c3d
00000380: d204 653d 27e1 19bd 26aa 68bc 091e c4bc
00000390: 1ed9 3e3c 6850 50bd e430 9dbd 64e2 ccbc
000003a0: 745b 893d 92e7 a93a 3d23 c2bd 1c20 c6bd
000003b0: 3c5d c1bc 623b 76bd de58 99bd dc43 9d3c
000003c0: f88f 8dbd 5400 82bc bd3c 9b3d 5093 063c
000003d0: 0079 d33a f187 a43d 524f 023d 7e9d 2c3d
000003e0: 87c8 a13d 39b0 6ebd 99bc a53d a020 dfbc
000003f0: 694a 813d 0c9b 59bd 3560 a13d 29b4 933d
0.17292356 -0.041609284 -0.09392354 -0.07413958 0.16891246 0.2909271 -0.08441165 0.008163981
0.060350753 0.2126118 0.29815158 0.007267641 -0.16372766 0.001181434 0.28711817 0.26968265
-0.037523422 0.057551086 -0.004772581 0.31886238 0.2628391 0.10722053 -0.17667222 -0.038756456
0.21965261 0.18130536 0.020262673 0.19898 0.21239261 0.2657876 0.29032558 0.08099431
0.0065047666 -0.040261574 0.29488084 0.315014 0.091226764 -0.050480515 0.021048509 0.15053764
0.28218055 -0.22476247 0.013919891 -0.17002948 0.22530408 0.20728402 0.015566766 0.08608041
0.24967359 0.23228696 0.25391614 -0.15747468 -0.18107599 -0.10675326 0.17530467 0.26661184
-0.08144927 -0.024731427 0.3013095 0.24764112 0.18254879 -0.009890629 -0.031098641 -0.24952185
0.31212798 0.20297864 0.15629894 0.28409836 0.32160687 0.18242204 0.24402584 -0.1390838
-0.107599385 -0.17440781 0.18025774 0.24434076 0.14003271 -0.061994836 0.13198368 0.25391984
0.14805222 0.006933252 -0.12110382 -0.09031325 0.30991232 0.15325426 0.21806806 0.052186187
0.1776946 0.13850112 0.24825287 0.08850359 0.1658474 0.09734436 0.26994115 0.13985974
0.097775474 0.22047931 0.11649697 0.29694352 0.25951114 0.19604072 0.25468007 0.13151585
0.18574779 -0.15304005 0.16038965 -0.23923714 0.22491583 -0.240649 -0.054489 0.30375147
0.050066985 -0.19099998 -0.16365415 0.19209917 0.25370827 -0.26549515 0.18582228 -0.03096587
-0.018297657 0.06528915 -0.018996961 0.055573944 0.070936784 0.06541791 0.07299597 0.054643117
0.02418236 -0.05152667 -0.063374996 0.027773961 0.009847641 -0.0026475685 -0.09160348 0.044876926
-0.021250136 0.0026119724 0.08097841 -0.0813349 -0.023580253 0.07790441 -0.05461068 -0.02630127
0.06541005 -0.00878416 0.039010607 0.075930975 -0.026178425 -0.06561246 0.07941849 -0.05512617
0.033627175 0.041203577 -0.046057675 0.022857316 0.04132744 0.06893263 0.070118934 0.0154086435
0.090078555 -0.0752936 -0.06507628 0.054205585 0.043300558 0.022876978 -0.017813355 -0.05227636
0.0046744067 -0.073993795 0.078718625 0.023504868 0.008308329 -0.08685235 0.04491793 0.00057318807
0.067660905 -0.0714884 0.08052361 -0.10119396 0.04841008 -0.02490247 -0.0031264275 0.07536018
0.022271339 -0.08510146 -0.00796739 -0.011805892 0.028401943 -0.05618402 0.0076237023 0.07105515
0.0834092 -0.014542468 -0.09149579 0.06316439 -0.0105624795 0.061011292 0.030501373 0.07242361
0.033822186 -0.07955292 0.059628986 -0.08630848 0.04927412 -0.05520917 0.0020479634 -0.08416056
-0.04358751 -0.004972346 0.03318125 -0.051014747 -0.086461484 0.039571155 0.009097904 -0.059757557
-0.004954405 0.038847007 -0.016803721 -0.096807525 0.067312516 -0.074404605 0.0033970745 0.05003959
0.0559128 -0.037568238 -0.014200723 -0.023940103 0.011648444 -0.05085793 -0.07675341 -0.025010295
0.067068964 0.001296269 -0.094793774 -0.09674093 -0.023604028 -0.060115226 -0.07487653 0.019197397
-0.069122255 -0.015869297 0.07579944 0.008213833 0.0016134083 0.08033741 0.031813927 0.042142384
0.07899576 -0.058273528 0.08092613 -0.027237236 0.06313021 -0.05312638 0.07879678 0.07212097

perceptron.0.bias f4 [64]
00000000: fb5c 923e 3163 aa3c 43dd 823d c70f 993e
00000010: caa2 443e 3db7 38bd dc18 913e 7426 d33e
00000020: 8dd9 1e3e 5b2f 703e f09e 083c 5a16 9d3e
00000030: 8f83 5b3e 944b 283e 873d ab3e 575f 343e
00000040: ea48 533e 0753 32bd dbfe 903e f005 5e3e
00000050: 34b0 873e d22e d5bd 675b 463e 34bc a43e
00000060: 568d 683e f1ee 953e ecdc 353e 7fad 913e
00000070: 06ba 6a3e 50fb a33c ceba 5e3d 06a9 3f3e
00000080: ffc7 713e 5ce8 4f3e c2c0 4c3e cece 4d3e
00000090: b8f6 223c af9c ba3d b9a8 a03e 676c 8a3e
000000a0: 0f06 803e b522 8f3e 7a06 663e 5dbc 9e3e
000000b0: 8628 7a3e 001f f6ba cfc9 773e 9980 7f3e
000000c0: 0c9e 873e 0428 a43e b2e0 523d 8444 a63e
000000d0: a43d 693e f0ce 983b cddf 3d3e 64aa 733e
000000e0: 3d86 8b3e c740 a3bd 5132 6e3e be83 7ebd
000000f0: 901d a83e 927a 77bd 68b8 fc3a 3942 3f3e
0.28586563 0.020799251 0.063898586 0.2989485 0.19202724 -0.045096625 0.2833928 0.41240275
0.15512677 0.23455565 0.008338675 0.30681115 0.21436904 0.16435081 0.3344538 0.17614494
0.20633283 -0.043536212 0.2831944 0.21681952 0.2650162 -0.10409321 0.19370805 0.32174838
0.22710165 0.2928386 0.17760056 0.2845268 0.22922525 0.020017296 0.05437737 0.18716821
0.23611449 0.20303482 0.19995406 0.20098421 0.009946518 0.09111916 0.31378725 0.2703583
0.25004622 0.27956167 0.22463408 0.31003085 0.24429521 -0.0018777549 0.24198078 0.249514
0.26487768 0.3206178 0.051483817 0.32474148 0.2277742 0.0046633407 0.18542404 0.23795468
0.27250853 -0.0797134 0.23261382 -0.062137358 0.32835054 -0.060419627 0.0019281032 0.18677606

perceptron.2.weight f4 [64, 64]
00000000: d38e 953e be81 3bbd b04a b8bd c4dc 523e
00000010: afeb e13d 40b2 0fbc d9b0 173e e6ea a53e
00000020: c711 763e f1a4 8a3e 02ca ac3d 15a9 e63d
00000030: 7352 0f3e c055 c03d 5f83 153e f21f 273e
00000040: 1fc2 7f3e de5d 2abd 77c8 463e 6e78 dd3d
00000050: 77b1 673e 7535 a53d 79c8 8f3e bebf e43d
00000060: 7dae 0f3e be9a df3d e1ed 683e 4fb0 823e
00000070: a4cb 283e ac47 023d 7836 983c e7bd 9a3e
00000080: 6377 323e b3c7 a53d 812d 3e3e b887 483e
00000090: 8067 14bd 1458 e8bd 5454 0f3e 7f12 513e
000000a0: 8621 703e 7952 083e 4a43 923e 6ee1 943e
000000b0: 2754 673e 5478 fabd c173 0a3e ea7b 913e
000000c0: 140b 973d 6ed8 913e c8e7 86bc e60a a03e
000000d0: 6714 883e 0c23 263d b496 5e3e 16ee a33e
000000e0: dbe3 a43e a457 943d 3421 803e ece1 24bd
000000f0: 3e9a c03d 3820 f8bc 95eb 4fbd 3c06 a43e
00000100: 6bc3 e43c a1cc c4bd 1647 8d3d f3eb 89bd
00000110: 0085 72bd 9409 6abd 305e 3dbd 6044 923d
00000120: c45a 3cbd 0072 603c c8b3 6bbd f3e0 723c
00000130: 4576 813d 4297 3fbd 8096 d3bd 26bf 043c
00000140: 3110 fcbb 4ef0 373d 5981 ff3c 9ffd 2cbc
00000150: dd29 a33d 9e7a 043d 0398 23bd e8dd a73d
00000160: 493f 733d 2ab9 45bd ebf6 b53d 0496 18bd
00000170: 4e3f 16bc 8c37 f1bd 025a 8e3d 554d acbd
00000180: 1c6d 89bc f8f8 813d 7c11 3dbb 3552 333d
00000190: 6038 4a3c fae7 d1bd 888e 75bd 9e4c c13d
000001a0: 3dbb 30bd 97ad f3bc 0219 dbbd adb8 583d
000001b0: f5cb c7bd e079 733d 5d46 0ebd e401 903d
000001c0: c7f6 943d 6b32 03be 3642 ec3d a89d 36bd
000001d0: a9d0 d5bd d489 d4bd de7e c03d f6d1 edbc
000001e0: 52d8 993d a666 ac3d 1290 0f3d 305b 743c
000001f0: 449b 7b3d 0441 debd 1e32 dd3d 5c1b 983d
00000200: 41c5 973e 82a1 d13d 6026 26bc dfc8 873e
00000210: 06ed 4f3e 2cfe c03d 5ed7 3a3e 3a19 a13e
00000220: 48de 923e 4e92 843e 74d4 e83d 1c39 d33d
00000230: 903a aa3e a11c 2f3e 0464 aa3e c3d7 803e
00000240: 9293 8a3e e27a 393d 43a1 223e 56d7 293e
00000250: ef80 713e 47ea b13d a911 6f3e 081d 3d3e
00000260: 940b 2b3e 4b29 3e3e 18ce 233e f85d 8f3e
00000270: 3002 f23d 6e72 b23d 6012 d13b ad75 cd3d
00000280: c5ad 403e 43a6 193e 6371 8d3e 875b 043e
00000290: ec49 c7bd e8d0 633d 1a70 983e f880 4d3e
000002a0: 67cf a13e 104d 253e 2e75 9b3e 4bb2 4a3e
000002b0: 6ee6 873e d0bc 9dbd f4b5 733e f121 9b3e
000002c0: 74d2 533e d66c 313e a042 293d ea18 893e
000002d0: 77f4 a63e 5000 693d 2e5f 5a3e 438d f43d
000002e0: 0542 a43e 2c6e 9dbd 3b9a 5c3e 28a4 ad3d
000002f0: 0469 853e ccd6 223d d911 8ebd 448d 6e3e
00000300: 62f7 813e b626 043e 30e5 943c 61d6 8a3e
00000310: fc33 543e fc66 f23d ad6a 263e 7a43 e53e
00000320: a33e 0c3e 5335 803e 9871 8c3c c37a 813e
00000330: 3658 aa3e 55d6 643e d2e0 9f3e 3648 5d3e
00000340: 167e 203e 2a6d 56bd 72df 7d3e f384 a53e
00000350: 6a28 d43d 2c1f ac3d 62f7 9e3e 12e0 a23e
00000360: 6f94 fe3d 9877 173e 4224 873e 319c a33e
00000370: 863a 383e acf5 7bbd e07a e6bc 9776 7f3e
00000380: 1731 773e 002b 5e3e 1902 803e 4d02 013e
00000390: 7078 5fbc 50cf 62bd ce04 833e c86b ac3e
000003a0: be20 8c3e 6bd9 913e 0170 113e 9a0a 5f3e
000003b0: 8cd2 a03e a804 bfbc 84dd 1f3e f0ad 763e
000003c0: 1e9b 163e 1b40 593e e475 33bd 4319 553e
000003d0: 4b15 df3d 3e3b 94bd 6da9 3b3e aeed 183e
000003e0: 0b38 3c3e 02c5 f6bd 59a4 183e 2a43 e93d
000003f0: b38c 753e 8ca6 8b3d c98f b43d a2c5 363e
0.2921053 -0.04577803 -0.089986205 0.20592028 0.11031281 -0.008770525 0.14813556 0.32405776
0.24030219 0.27078965 0.084369674 0.112627186 0.13996296 0.093913555 0.14600895 0.1632078
0.24976395 -0.041593425 0.19412409 0.10813986 0.22626291 0.08066837 0.28082636 0.111693844
0.14031406 0.109181866 0.22746994 0.25525138 0.16483933 0.031806633 0.01858066 0.3022301
0.17428355 0.0809473 0.18572046 0.19583023 -0.036231518 -0.113449246 0.13997012 0.20417212
0.23450288 0.13312711 0.28566962 0.2907824 0.22590695 -0.12229982 0.13520719 0.2841485
0.0737516 0.28485435 -0.016467944 0.31258315 0.26578066 0.040560767 0.21737176 0.32017583
0.3220509 0.072432786 0.25025332 -0.04025452 0.09404419 -0.0302888 -0.050761778 0.32036006
0.027925214 -0.09609342 0.06898324 -0.06734457 -0.05920887 -0.05713804 -0.046232402 0.07141948
-0.045985 0.013699055 -0.0575445 0.01482414 0.06321386 -0.04677511 -0.1033144 0.008102214
-0.00769236 0.044906907 0.031189607 -0.010558515 0.07966969 0.0323435 -0.03993989 0.08196622
0.059386525 -0.04827229 0.088849865 -0.03725244 -0.009170366 -0.11778173 0.069507614 -0.084131874
-0.01677566 0.06346315 -0.0028849533 0.04377957 0.012342542 -0.10249324 -0.05995038 0.09438442
-0.043147314 -0.02974586 -0.10698129 0.052910496 -0.097556986 0.0594424 -0.034735072 0.070316106
0.072736315 -0.12812202 0.11536066 -0.044583946 -0.104401894 -0.10377851 0.09399198 -0.029030781
0.07511963 0.08418016 0.035049506 0.014914319 0.06142737 -0.108522445 0.10800575 0.074270934
0.2964268 0.10235883 -0.010140985 0.2652044 0.20305261 0.094234794 0.18246219 0.3146456
0.28685212 0.25892872 0.11368647 0.10313627 0.33247805 0.17100765 0.3327943 0.25164613
0.27065712 0.045283206 0.15881829 0.1658605 0.2358434 0.08687263 0.2334658 0.18468106
0.16703635 0.1857044 0.15996587 0.2800138 0.118168235 0.08713232 0.0063803643 0.100322105
0.18816288 0.1500483 0.2762557 0.1292554 -0.09730896 0.05561915 0.29773027 0.20068729
0.31603548 0.16142678 0.30362839 0.19794576 0.2654299 -0.07702029 0.23799878 0.30299333
0.2068575 0.17326674 0.041323304 0.2677682 0.32608387 0.056885064 0.2132537 0.11941006
0.3208162 -0.07687029 0.21543209 0.08478576 0.26056683 0.039755628 -0.06936998 0.23296076
0.2538405 0.12905392 0.018175691 0.27116683 0.20722955 0.11836049 0.16251631 0.44778043
0.13695769 0.25040683 0.01714401 0.25288972 0.33270425 0.22347386 0.31226212 0.21609578
0.15673098 -0.0523502 0.24792269 0.32327995 0.10359271 0.08404383 0.31048113 0.31811577
0.12430655 0.14791715 0.2639485 0.31955102 0.17991075 -0.061513588 -0.028134763 0.24947582
0.2413982 0.2169609 0.250016 0.12598534 -0.013639554 -0.05537349 0.25589603 0.3367598
0.2736873 0.2848619 0.14202882 0.21781388 0.31410635 -0.02331765 0.15611845 0.2408979
0.1470761 0.2121586 -0.0438136 0.20810418 0.10892733 -0.07237862 0.1832635 0.14934418
0.18380754 -0.12049295 0.14906444 0.11389764 0.23979454 0.06818876 0.08816487 0.17848828

perceptron.2.bias f4 [64]
00000000: b894 063e 71ba c3bd 82a3 953e 4e28 123e
00000010: 6459 113d cfbc 7e3e c0aa 333c bce1 dabd
00000020: fa10 d93d f8f2 593e 8883 153e 02e5 e73d
00000030: fc0e ac3d 6ad1 d13d 8de5 ea3d e104 84bd
00000040: 2a9a a23d bbcd 6c3e 5896 a23e 042b a33e
00000050: d621 e23d 8a38 823e 1f73 083e f4c7 e43d
00000060: b55c 9d3e 2f2f 4a3e c6e6 a1bd c0ae dcbb
00000070: d065 8ebc 14d9 8fbd 9036 c33d a8f8 13bd
00000080: 3b89 a03e c052 e33b 4bf7 8e3e abd9 ac3e
00000090: f1bc 5e3e 8ee7 93bd c7d6 b53c 1017 a83d
000000a0: 4266 4d3e 48c3 7a3e 614a 733e 651e 963e
000000b0: cab6 ac3d 1033 833e 1457 413e efcd a43e
000000c0: 13b3 07be 38d0 bebd dd96 973d bdbd 943e
000000d0: 272b 8b3e c6a7 593e d0aa e83d 05f7 ac3e
000000e0: a6e4 1f3e ac19 b0bd a5d9 513e 978e 8f3e
000000f0: d494 32bd 3a1b 283e 0c64 de3d 4411 f2bd
0.13142669 -0.09557045 0.2922631 0.14273188 0.03548564 0.24876712 0.010966003 -0.10687587
0.10598941 0.21284091 0.14600956 0.11322977 0.084012955 0.10245021 0.114695646 -0.06446243
0.07939561 0.23125355 0.31755328 0.31868756 0.1104161 0.2543376 0.13325165 0.111709505
0.30734792 0.19744562 -0.07905345 -0.006734699 -0.017382532 -0.07023826 0.09531891 -0.03612581
0.313547 0.006937355 0.27923045 0.33759817 0.21751763 -0.072219 0.02219714 0.08207524
0.2005854 0.24488556 0.23758842 0.29320064 0.08433302 0.25624895 0.18880874 0.32188365
-0.13251905 -0.09317058 0.07401822 0.2905101 0.2718136 0.21255407 0.11360705 0.3378221
0.15614566 -0.085986465 0.20493181 0.28038475 -0.043598965 0.16416636 0.10858926 -0.118196994

perceptron.4.weight f4 [64, 64]
00000000: 7e14 d4bd 80c5 503d 48ca 28bd e00a a7bd
00000010: 7875 fcbd 9a17 cfbd 3837 c73c ce97 e3bd
00000020: 3e33 9cbd bc98 1a3d 2076 0a3d 08b5 7cbd
00000030: 887d 83bc 4a65 843d f8cb c43c 5c0f bf3d
00000040: fcbf fd3d 6cc7 3b3d 4240 af3d 98b7 c63d
00000050: ba88 94bd 06aa bfbd c0be e73b 4084 86bb
00000060: 4412 80bd 1081 c13d 9040 813c 6af9 f5bd
00000070: 7c78 77bd 90cd 873d f074 ee3c b477 58bd
00000080: 7ac8 dcbd 505e 3bbc 164c f13d 8086 ad3a
00000090: aacb b9bd 8053 e4ba d862 6abd b097 053d
000000a0: 60cc 4dbc 162b c73d 98d7 b13d 6aa4 e2bd
000000b0: 007c fb3a 64df 50bd a079 013c d0aa 07bc
000000c0: 96cf c73d c8a7 3b3d 2e7f d6bd 5866 2d3d
000000d0: 401a c0bd b263 9fbd 5004 673c 4e5a f3bd
000000e0: 5052 903c 0054 67ba 0c83 aebd 2626 da3d
000000f0: 6e06 e53d 08f5 57bd 6021 e23c 7036 d53c
00000100: de09 403e 3ae3 003e 0d43 913e c8af 503e
00000110: 38d1 e03c d9d8 973e 6e23 923d 2867 a7bb
00000120: fc6d 503d 99e3 8a3e 4df1 723e 6862 893c
00000130: 4874 f43d f8de 4c3e 2ba3 833e 0644 043e
00000140: ae1d 8cbd bc45 8c3e fee4 7d3e 0887 de3d
00000150: 000e 273e 1c69 a53e 7d34 6a3e 74e0 383d
00000160: 1053 953e bc5b 0e3e 52e5 cd3d 706b 343c
00000170: 9c7a 593d 8cd6 3ebd a6aa 803d 90eb 883d
00000180: 3e18 2e3e 4254 803d 6525 843e db29 9c3e
00000190: 5d8e 8b3e 5ef1 90bd be67 fa3d b4c0 073d
000001a0: 0ffe 1f3e eb5a ca3d aca8 353e 56d3 0a3e
000001b0: fc9f 8dbd b66f a23e f172 fb3d cc90 a63e
000001c0: e7e1 cf3d 7093 53bc 26da 093e f4a8 a53e
000001d0: 142a 843e ee57 943e ea31 fabd 166d 9b3e
000001e0: de8f ab3e 45ff acbd f1e4 573e 8a93 403e
000001f0: 1851 893d 28e1 cc3d 097e ec3d 5ebf ffbc
00000200: 7ad6 ab3e 110b b63d 1f0f 043e b82b ac3e
00000210: e0c6 313c 929d 993e f88f 22bd e051 163c
00000220: b4fc 72bd 25e4 a73e acff 183e b8c7 ccbd
00000230: a0aa 80bd 1acb a93e 3d99 db3d e5be ce3d
00000240: 77d2 a5bd 1a06 2c3e 889d 8e3e 6d96 1b3e
00000250: 259e 8f3e f04b 823e 8e06 843e 348a 153d
00000260: 502d 933e f781 833e 6c55 35bd 50be 3bbc
00000270: 2234 c73d 7ca8 673d 2850 da3c c01b 36bb
00000280: 97a2 853e 0414 b5bd 67f1 903e b398 b03e
00000290: 165d 913e d6a1 f93c 49d1 a5bd b2e1 c3bd
000002a0: 5573 f03d c63d 8d3e 7bf4 753e d253 953e
000002b0: 3024 d23c 2ebc a03e afad 9b3e f28e 843e
000002c0: 7e70 803d 5830 e33c c994 3a3e 7464 dc3d
000002d0: b752 933e 0eaa e63d 74bc d3bd ac81 8b3e
000002e0: 19ec cc3d b0e1 783c 4220 933e ca5f 813e
000002f0: e068 ce3b 4e21 313e ebcc 8f3e f8fb 673c
00000300: e095 633c 8272 dc3d dc0d 0f3d e69f dabd
00000310: 1ac7 fc3d 4860 92bd 16e7 c3bd 9460 f63d
00000320: 0873 70bd 7c02 30bd 6876 993c 4c0e 263d
00000330: d0d9 543d ee19 e3bd b89e 203d 0413 73bd
00000340: 100a 333c 6842 fcbd 24d7 d53d c8ed ebbd
00000350: b860 793d 5cad 533d f0ba 1bbc 36de a0bd
00000360: 8086 583d 7472 823d 8089 0bbd 5403 103d
00000370: 6a22 9b3d 84c3 4fbd 902c 833c a0c4 e33d
00000380: f05d 6d3c 0864 e13c 4889 f6bd 2a88 fabd
00000390: 70cf 7d3d 30de cf3c b8e0 ab3c 90dd 993d
000003a0: 74fb 8c3d f46e 9cbd 6004 be3b 4011 a93d
000003b0: dc1c fc3d 326f fbbd e66c c7bd 6030 a33d
000003c0: 4405 eebd fcfb 013d a026 f53c f08e 823d
000003d0: bcd1 03bd c688 fbbd 2017 bebd 0022 a1bc
000003e0: 66c8 dc3d bcbd ab3d 7841 a33c 56c8 a83d
000003f0: 8ec8 db3d 5c6a f83d e64b dfbd f811 98bd
-0.10355471 0.0509696 -0.041208535 -0.08156371 -0.12327093 -0.101119235 0.024318323 -0.11112939
-0.07626961 0.037743315 0.03380406 -0.061696082 -0.016051069 0.06464632 0.024023041 0.093291014
0.12390134 0.04584448 0.08557178 0.097029865 -0.07252641 -0.09358601 0.0070722997 -0.004105121
-0.06253484 0.09448445 0.015777856 -0.120104626 -0.060417637 0.06631005 0.029108495 -0.052848533
-0.10780425 -0.01143606 0.1178209 0.0013238937 -0.09072049 -0.0017419904 -0.05722317 0.032615364
-0.012560934 0.09725015 0.08683699 -0.11066516 0.0019186735 -0.050994292 0.007902533 -0.008280471
0.09756391 0.045814306 -0.10473476 0.04233393 -0.09380007 -0.07782687 0.014100149 -0.118824586
0.017617375 -0.00088244677 -0.08521089 0.106518075 0.11182867 -0.052723914 0.027603805 0.026026934
0.18753764 0.1258668 0.28371468 0.20379555 0.027443513 0.2965763 0.07135664 -0.0051087327
0.05088614 0.27126768 0.23724861 0.016770557 0.119362414 0.20006931 0.25710425 0.12916574
-0.068415985 0.27396953 0.24794385 0.10865599 0.16313934 0.32306755 0.22871585 0.04513593
0.29164934 0.13902181 0.10053505 0.011011943 0.053095445 -0.046591327 0.062825486 0.06685555
0.17001435 0.06266071 0.2580978 0.30500683 0.27257052 -0.07077287 0.122268185 0.03314276
0.1562426 0.098806225 0.17740124 0.13557181 -0.0691528 0.31725854 0.12277783 0.32532346
0.10150509 -0.01291357 0.13462123 0.32355464 0.25813353 0.28973335 -0.122165516 0.30356663
0.335082 -0.08447126 0.21083428 0.18806282 0.067049205 0.10003883 0.11547477 -0.03121918
0.3356207 0.088888295 0.12896393 0.33627105 0.010850638 0.3000303 -0.03968808 0.009174794
-0.059323028 0.32791248 0.14941281 -0.09999031 -0.06282544 0.33162767 0.10722587 0.10095004
-0.080967836 0.16799203 0.27854562 0.15194102 0.28050342 0.2544856 0.2578625 0.036508754
0.28745508 0.25685093 -0.044270918 -0.011458948 0.097267404 0.056557164 0.02664955 -0.0027787536
0.2610061 -0.08841708 0.28309175 0.344915 0.2839133 0.030472677 -0.080965586 -0.09564532
0.11740748 0.27586192 0.24019043 0.29165512 0.025652021 0.3139357 0.30405948 0.2589031
0.06271456 0.027733013 0.1822082 0.107613474 0.28774044 0.11262904 -0.10338679 0.2724737
0.100059696 0.015190527 0.28735548 0.25268394 0.006299123 0.17297861 0.28086028 0.014159195
0.013890713 0.10764028 0.034925327 -0.106750295 0.12342663 -0.071472704 -0.095655605 0.120301396
-0.058703452 -0.04297112 0.018733218 0.04054098 0.051965535 -0.1108893 0.039213866 -0.059344307
0.010927692 -0.123173535 0.104414254 -0.115199625 0.060883254 0.051679 -0.009505019 -0.078548834
0.052862644 0.063694865 -0.034066677 0.035159424 0.07574923 -0.050723568 0.01601246 0.111214876
0.0144877285 0.027513519 -0.12037903 -0.122330025 0.061965406 0.025374502 0.020981178 0.07512963
0.068838984 -0.0763835 0.0057988614 0.08255243 0.12310192 -0.12277068 -0.097375676 0.07968211
-0.11622098 0.03173445 0.029925644 0.063749194 -0.03218244 -0.12281947 -0.092817545 -0.019669533
0.107804105 0.08385798 0.019928679 0.08241336 0.10731612 0.121296614 -0.10903148 -0.07425302

perceptron.4.bias f4 [64]
00000000: a29c a4bd 9a1c 6a3e ef75 8c3e 0cff 2abd
00000010: 2cc4 c1bc 6d60 c23c 932d b93d 690f 173d
00000020: 8c5e 1b3e b844 9d3e b571 383e b4a9 9cbd
00000030: a596 89bd 6d31 a6bd 14d6 d0bd e61d 423d
00000040: 713e 3b3e d7aa 22bd 7908 3dbd 88a2 da3c
00000050: 3e01 fb3c 25b2 523e cec6 903d b4e2 7bbd
00000060: 32fe 833d f978 933e 7288 863d c366 4c3e
00000070: 0f05 a2bd 8879 873e 3a84 83bd a6b4 1b3d
00000080: da25 8a3c 874a 8b3d 138a ad3d 0ffa 9cbd
00000090: 7088 913c 73ba 2c3e 89bd 8d3d 94bf d43d
000000a0: a837 fe3d 0af9 a03b 1e11 023e 9633 8b3d
000000b0: f46d 173e 0c2d 9b3d e84c 473d c919 963e
000000c0: e028 babd fa9c 973d 8c48 9c3e 52dc 363d
000000d0: 54ad 6a3e 7e6e 94bd cf9b d0bd 20e5 9fbc
000000e0: 3a38 d13d c29b e23d 1a3e f83c c405 f3bd
000000f0: d532 803e 1d55 6c3d ec1f f4bd 5d1d 3abd
-0.08037688 0.22862473 0.27433726 -0.041747138 -0.023653112 0.02372762 0.09041896 0.03687993
0.15172786 0.3071649 0.18012126 -0.07649556 -0.06718186 -0.08114896 -0.10197082 0.047391795
0.18285538 -0.039713707 -0.04615066 0.026688829 0.03064024 0.20575769 0.07069169 -0.061495498
0.06444968 0.28803232 0.06568994 0.19961075 -0.07911121 0.26459908 -0.064217046 0.038014077
0.016863752 0.06801324 0.08473601 -0.076648824 0.017765254 0.16868 0.069209166 0.10388103
0.12412959 0.0049125003 0.12701842 0.067969486 0.14788038 0.075769514 0.048657328 0.29316548
-0.090898275 0.07402988 0.305241 0.044643708 0.22917682 -0.07247637 -0.10185968 -0.019518435
0.102158025 0.11064865 0.03030305 -0.11866334 0.25038782 0.057698358 -0.11920151 -0.04543816

perceptron.6.weight f4 [1, 64]
00000000: 484d ae3c 744d 9ebe 1b45 66be 5e6e 993d
00000010: ef48 013b ed46 543c 0f9b cf3c b989 813d
00000020: 8bc5 9abe f61e 73be bad3 aabe 70c7 3e3d
00000030: 5423 243c d603 43bd a016 fb3d 9e99 753d
00000040: 5989 9fbe 1cd5 e53c 9897 e339 18b2 323d
00000050: 1e84 e13d b71f 81be 8071 013d 682b 983c
00000060: 9ddb 4a3b 251f 8bbe 28b4 b5bd 5075 92be
00000070: b70e 183d 70f5 9ebe 904a c73c 498c a43d
00000080: ea68 6b3d 6470 223d 6d62 85be 81ce b03d
00000090: 80b5 2ebd 7c4f 71be f278 7d3d fcaa 763d
000000a0: aafc babd 1a83 5b3d 7ce5 a8be 4c54 8cbe
000000b0: 2e61 85be b4ef 9d3d 200f 46bd d3af 9dbe
000000c0: 80c0 9eba 44bd e4bd b9c6 89be c8dd 9f3d
000000d0: 8a93 8bbe 142d 2e3d 143e c03d e895 c03d
000000e0: 7a28 a8be 5026 343d 2360 a83d 698d 693d
000000f0: 21dc 7abe 04b7 a4be c022 dc3d e534 d53b
0.021277085 -0.30918467 -0.22487299 0.07491754 0.001972731 0.012956363 0.025342492 0.06325097
-0.30228838 -0.2374228 -0.3336466 0.046576917 0.0100181885 -0.04761108 0.12260175 0.059960954
-0.31159475 0.02805572 0.0004340976 0.043626875 0.110115275 -0.2521951 0.031602383 0.018575385
0.0030953654 -0.271722 -0.08872253 -0.28605127 0.03712341 -0.3104663 0.024327546 0.0803457
0.0574731 0.039657965 -0.26051655 0.086331375 -0.04265356 -0.23565477 0.06188292 0.060221657
-0.09130223 0.053591825 -0.32987583 -0.27408063 -0.26050705 0.07711735 -0.048354268 -0.30798206
-0.0012111813 -0.11168912 -0.26909426 0.07805973 -0.27261 0.04252346 0.093868405 0.09403592
-0.3284338 0.04398185 0.082214616 0.057019625 -0.24498035 -0.3217088 0.107488155 0.0065065497
